TorchLearning/net.pkl (torch, 2463 bytes, 3 tensors)

weight f4 [10, 1]
00000000: 706b 0e3f 16e9 d2be c0f8 9bbf 1233 b63b
00000010: 6b8d e03d 837b 5fbf 00c1 913c 6d7a 8bbf
00000020: 94ba 913f b290 903f
0.55632687 -0.41193455 -1.2185287 0.0055602873 0.10964473 -0.8729784 0.017792225 -1.0896736
1.1385064 1.1294158

bias f4 [10]
00000000: cc04 32bf 54bf 673f 455c 113e fbbd 5e3f
00000010: baf6 3f3f bab3 48bf da3b 42bf b805 8fbd
00000020: 098c 163f 71a1 f2be
-0.6953857 0.9052632 0.14195354 0.8700864 0.7498585 -0.7839924 -0.75872576 -0.06983513
0.58807427 -0.47388795

weight f4 [1, 10]
00000000: 08fb fa3d 0048 11be 35ed 2e3f 178b b8bc
00000010: 7fa6 86be 2f16 35bd 20d5 173c 06b9 f03e
00000020: 0a8a 163f ca34 0b3f
0.12254912 -0.14187622 0.683307 -0.02252726 -0.262989 -0.04421061 0.009267122 0.47016162
0.5880438 0.54377425
